rasp-rain-preview/temperature-preview.lite (tflite, 3144 bytes, 6 tensors)

sequential/dense_1/BiasAdd/ReadVariableOp f4 [10]
00000000: 55c5 6d3e 0000 0000 0000 0000 4ce0 333e
00000010: 0000 0000 0000 0000 0874 2f3e a0b5 35be
00000020: 894e 333e 2531 323e
0.23219807 0.0 0.0 0.17566031 0.0 0.0 0.17134106 -0.17745066
0.17510428 0.1740156

sequential/dense/BiasAdd/ReadVariableOp f4 [20]
00000000: 0000 0000 0000 0000 d312 103e 3a64 39be
00000010: 6fb8 313e fdbc 2c3e 1417 f9bd 0000 0000
00000020: 5326 38be 19d3 1d3e 02d7 313e 9a22 4ebe
00000030: 0000 0000 0000 0000 4d30 f7bc f234 4bbe
00000040: 0000 0000 c95d 203e 0000 0000 5c8e 42be
0.0 0.0 0.14069681 -0.1810464 0.17355512 0.16868968 -0.12162605 0.0
-0.1798337 0.15412559 0.17367175 -0.20130387 0.0 0.0 -0.030174399 -0.19844416
0.0 0.15660776 0.0 -0.18999618

sequential/y_pred/BiasAdd/ReadVariableOp f4 [2]
00000000: 1218 353e 0f18 35be
0.17684963 -0.17684959

sequential/dense/MatMul f4 [20, 2]
00000000: 0097 0dbb 5cb3 93bd dd6e 01bf 381a 0ebd
00000010: 5440 9c3e f0ee c1bd a55f dbbe d5fa 813e
00000020: c97e cc3e fae6 d83d 2e9a 38be e63c c53e
00000030: 6a19 9f3e 24cb 66bd 1a75 c23e 0638 02bf
00000040: f1e8 963e 17e5 f73e 6a87 e9be f831 6f3e
00000050: 98b6 f53e af6d 013e 7844 d3bd 14ec fb3d
00000060: a6b3 73be 7969 fdbe 98cd fa3d b71f 05bf
00000070: 8d96 e33e 9790 efbe 9a74 87ba b86e d53e
00000080: 00d9 e33b 9c7c aabe 85b4 0abe cb32 7b3e
00000090: 238b dfbe 12fb 07be 2910 12bd ad44 b33e
-0.0021604896 -0.072119445 -0.5055979 -0.034692973 0.30517828 -0.09469402 -0.42846408 0.25386682
0.3994048 0.1059093 -0.18027565 0.38523024 0.31074077 -0.056346074 0.37979966 -0.50866735
0.29474595 0.4841697 -0.45611125 0.23358905 0.4799087 0.12639497 -0.10315794 0.12300888
-0.23798999 -0.49494532 0.12246245 -0.5200152 0.444508 -0.4679 -0.0010334433 0.41686034
0.0069533587 -0.33298194 -0.13545425 0.24531095 -0.4366084 -0.1327937 -0.035659943 0.35013333

sequential/dense_1/MatMul f4 [10, 20]
00000000: 28ea 1e3e 9462 97be 4d13 6ebe f482 c8bb
00000010: cfca c83e 694a 673d 3426 fa3e 2d69 cdbe
00000020: 1f84 86bc e495 99be b2e3 cd3d 0a65 913d
00000030: 8c64 783e b2e8 de3e cb29 ca3e 6c86 a0be
00000040: 0078 4939 8bbe d5bd 2e2f 8abe ad80 c43d
00000050: 754c 5cbe 6580 dfbe 8411 853e ac6e 833e
00000060: b480 523e 4239 20be f1eb 4bbe 285b bdbe
00000070: 7e0a b6be 001a 8f3d bf8c 4dbe 7631 4fbe
00000080: 00c4 763e a80d ad3d a6fc 883e 86a5 af3e
00000090: fa83 44be 0884 063e 6a6e 2dbe d821 f1bd
000000a0: f03b b1bd 805a bdbe 8036 3bbc 645a ce3e
000000b0: 367a 3dbe c186 67be 1e8c 0bbe 286c a13d
000000c0: ee86 20be 400a 33bd 70b0 fc3d 248b 463e
000000d0: c4df a7bd 2b0d a9be 80ce 4ebd 7488 88be
000000e0: 6c16 a53e 08d6 bebe b435 c4be ff49 9ebe
000000f0: 4066 663e a8dc 513d eec0 b23e ccad 1b3d
00000100: bee2 85be 5a7d 9b3e e58a 53be 2e6a 33be
00000110: 8e45 d5bd 09b9 9d3e b67c bf3e fa92 4a3e
00000120: ba83 8fbe a11f b8be 1d09 633d 803f 28be
00000130: 90f0 cfbd bce8 48be 0a2f cf3e 92a7 a83e
00000140: ac80 31be b422 6a3e ae1b bdbe f2a6 27be
00000150: c9ff a5be 9abb 883e 981f 0dbe 5875 d23d
00000160: fa9e b4be 2c38 703e aaea b03e b4db 5f3e
00000170: 58b7 9dbd 108f 413e 90e2 c13d 0f3a babe
00000180: 3e83 3ebe 46f2 c43e 9e56 8e3e 90f0 613e
00000190: 0fe9 abbe a08d 893e e82f 88be e857 473e
000001a0: 8088 eebd 8a91 e4be 2021 d3bc 36e8 983e
000001b0: e2e6 e3be 2c1c 38be b204 983e 9c9f 6a3e
000001c0: 6041 47be 0890 753e 702b bcbd 34a0 84be
000001d0: b253 10be 7061 723e d6e4 84be 401e 813c
000001e0: 5836 b43e 9435 393e 3145 73be b7df 8dbe
000001f0: abc5 983e 2c67 9e3e 93c7 6b3d 1e81 02be
00000200: 2e7b cbbd 4693 103d cf58 6b3e 4b8b 2b3e
00000210: baa5 8cbe aed7 20be ae18 d03d d2fb 7bbd
00000220: 2899 6a3e 5df6 76bd 90e9 7cbd 3993 01be
00000230: a0a0 6bbd 5621 b23e 1bd5 3f3e 6bd5 553e
00000240: 6061 1dbd 8e9b a23e 8dd7 a13e c058 d9be
00000250: d99b dc3e 35b0 12be ccb0 60be 9968 d53e
00000260: 6414 823e 2c57 d3bd 9e41 e8be 3cc4 393e
00000270: 324f a83e c26d 173c 40b4 533d c98b 9f3e
00000280: 54a5 743e 4065 1f3e 4d49 4b3e 8141 393e
00000290: 620b a73e 04ca 0c3e bf68 cdbe 541c ccbd
000002a0: 39a6 e2bd 412e 973d 7eaa b53e 9012 c13d
000002b0: a0ca 98bc 73e3 cdbe d03f 75bd a9c1 be3e
000002c0: a692 aabe eba0 8f3e 38d1 39be 83c7 f0bd
000002d0: 1cb6 2c3e 3f3b 8cbe 5729 97bd 7800 803c
000002e0: 91e9 973e e8e9 c93e a236 7ebd c84a 283d
000002f0: a626 983e 0a53 a9be c699 75be 5419 4a3e
00000300: 885c 92be f3fc 53be 80d4 923e b387 87bd
00000310: 7053 90bd 3fc9 b13e 40e9 273c bc3e 9a3e
0.15519011 -0.29567397 -0.2324955 -0.0061191265 0.3921723 0.056467447 0.48857272 -0.40119305
-0.016420422 -0.2999717 0.10053195 0.0709935 0.24257106 0.43536907 0.3948501 -0.31352556
0.00019213557 -0.10436734 -0.2698912 0.095948555 -0.21513541 -0.43652645 0.25989926 0.25670373
0.20556909 -0.15646842 -0.19914223 -0.3698361 -0.3555488 0.06987381 -0.20073222 -0.20233712
0.24098206 0.0844987 0.26755255 0.34305972 -0.1919097 0.13136303 -0.16936651 -0.11774033
-0.0865401 -0.3698311 -0.011426568 0.40303338 -0.18503651 -0.22609998 -0.13627669 0.07881957
-0.15676472 -0.043710947 0.1233834 0.19389015 -0.08196977 -0.3301786 -0.050489902 -0.26666605
0.3224367 -0.37272668 -0.38322222 -0.3091583 0.22499943 0.051235825 0.3491282 0.038007542
-0.26149553 0.30369073 -0.20658453 -0.17520973 -0.10413657 0.30805233 0.37399834 0.1978263
-0.28030187 -0.3596163 0.055428613 -0.16430473 -0.101533055 -0.19620031 0.40465575 0.32940346
-0.1733424 0.228648 -0.3693518 -0.16372278 -0.3242171 0.2670563 -0.13781583 0.10276288
-0.3527754 0.23458928 0.34554034 0.21861154 -0.07700986 0.1890223 0.094670415 -0.3637242
-0.18604752 0.3846609 0.2780046 0.22064424 -0.33576247 0.26865864 -0.2659905 0.19467127
-0.11647129 -0.44642287 -0.025772631 0.29864663 -0.44512087 -0.17979497 0.29691082 0.22912449
-0.19458532 0.23980725 -0.091879725 -0.25903475 -0.14094427 0.23669982 -0.25955838 0.015761495
0.3519771 0.18086845 -0.23756863 -0.27709743 0.2983831 0.3093809 0.057563376 -0.12744567
-0.09935604 0.0352967 0.22983097 0.16752355 -0.2747019 -0.15707275 0.10160957 -0.06151945
0.22909987 -0.060293544 -0.06174618 -0.12653817 -0.05752623 0.34791058 0.18733637 0.20882194
-0.038422942 0.31759304 0.31609765 -0.42450523 0.43087652 -0.1432503 -0.21942443 0.41681364
0.25406182 -0.10319361 -0.45362562 0.18141264 0.3287292 0.009242477 0.05168557 0.31161335
0.23891193 0.15565968 0.19852181 0.18091394 0.32625872 0.13748938 -0.40118977 -0.09966341
-0.11066861 0.07381869 0.35481638 0.09427369 -0.018651307 -0.40212592 -0.05987531 0.37257126
-0.3331501 0.28052458 -0.18146217 -0.11756804 0.16866344 -0.2738895 -0.07380932 0.015625224
0.29670385 0.3943627 -0.06206382 0.041086942 0.29716986 -0.33071166 -0.23984441 0.19736224
-0.2858622 -0.20701961 0.2867775 -0.066176794 -0.070471644 0.3472385 0.010248482 0.30125988

sequential/y_pred/MatMul f4 [2, 10]
00000000: d95a eb3e e16d 11bf d2e1 cd3e 9786 193f
00000010: f703 313f 7cad e3be 6f21 8abe 235e 15bf
00000020: 8dd3 713d 2d29 ff3e 7564 ac3e 80fd a23d
00000030: 2022 01be ff67 07be daf7 09bf 0068 bfba
00000040: eca5 21bf af0f 973e 7ff1 07bf dd01 4a3e
0.4596775 -0.56808287 0.4021135 0.5997099 0.69146675 -0.44468296 -0.26978633 -0.58346766
0.05903964 0.49836102 0.33670393 0.079585075 -0.12610674 -0.13223265 -0.53893816 -0.0014603138
-0.631438 0.29504153 -0.5310287 0.19727273
